checkpoint.pth (torch_old, 28333 bytes, 6 tensors)

fc1.weight f4 [64, 37]
00000000: db76 933d 0bf0 8a3d 7b73 2fbe 2cf7 61be
00000010: e634 203c 7aee b3bc 09e8 8ab8 859b 2b3e
00000020: 9282 a9bd 7772 dcbd 334d f43b 7f23 38bd
00000030: 8638 45be 0356 3cbe f307 9abe b8da 9e3d
00000040: 6bde 83be 211a 943e 17a5 663d 3a37 cb3d
00000050: 590c d53b 9bff 92bd 71b4 553d 3f42 913e
00000060: 6469 673d 0a45 a6bb aa51 543e 15ca acbd
00000070: 8b49 afbe b5e6 2dbe 7a9a 8abe b67b e03d
00000080: 1ab4 0bbd 4e7d 833d 4a1a 0abe e308 20bb
00000090: 37e7 f1bc 5bcb f73d b707 013e 493f f63b
000000a0: 7374 043e 8ab7 debd c470 923d 878e 38be
000000b0: dce7 68be 7bf5 2dbe acc0 17bf 413d b73d
000000c0: 0a3c bbbd 94b9 ca3b d19e 623d 8ba7 353e
000000d0: c364 e7bd 0d5b 0c3e 5947 f73d 14b1 cb3d
000000e0: 377e 3b3e 89c5 d43d a428 8abe 40b0 45be
000000f0: 8ea8 d5bd 70cc bd3d c0a0 48bd 58d7 1c3e
00000100: c3ef 9dbc 7da9 6abe 4e61 10bf 85af 8dbd
00000110: 2a3c 1b3e 39e3 333e 3aac 233d d314 423e
00000120: 6bab 8c3d c14d ccbb 9047 5dbe 3ec6 943e
00000130: 6188 683e 1c25 9e3c 554e 11bd 75d5 cbbe
00000140: afcb 9a3d f77b a93e 1039 9fb9 c2ab b7be
00000150: ca3d 88bc b835 9b3b c23c ebbd f0de f33d
00000160: 2360 d43d 4c5a d0be dc28 7b3e 273e 6f3e
00000170: bcb5 0b3e 0a5d ecbd 1db1 343c 1e5a 753d
00000180: 6064 37bd 73de a6bd 1b57 893c b8b9 40be
00000190: aacb 8d3e 05af 183e 81e5 44bc a198 3dbe
000001a0: e82d 84be 5d2c c7bc 87da 6dbd d480 a13c
000001b0: 1fd3 a63d 4649 e1bc 3d35 95bc 6e09 5ebd
000001c0: 13fa 6bbe 439b a63e 1183 55be 6087 82bf
000001d0: e6ab 67be 3222 0cbe c00c 823d d356 133e
000001e0: 42fc 03bf 5123 fa3d a605 30bd f0a3 94be
000001f0: 5458 9ebe cea9 68be 723a 9cbe 12ee 3dbd
00000200: 6d31 e73d b4b0 e6be 8639 00bf 19ae 2fbe
00000210: 3ea4 b5bd 9583 1a3d bc4e 283e 0b21 a03c
00000220: 8c37 1fbd 6a6e 23bd 3068 1c3d 0a0e e13d
00000230: 9bc9 41be c317 2e3e 6992 bb3d e65a 39bd
00000240: 63a6 8fbe 2750 c7bd 8d20 d63d 24ad 7abc
00000250: 79b9 4abd e656 e3bd 5a95 33be 4e2d 57be
00000260: 52fd 5fbe 14ef 1d3e 0ea5 8d3e 59bc a8be
00000270: c9e2 80bc e05a 99be fb37 cdbc 3fdf a6ba
00000280: e038 9fbd 68ac b4bd fb6d f4bd 83d3 34be
00000290: e6de 303d f2b9 233d 1661 4abd 07ca 333e
000002a0: 281d c9bd c20a 293d a213 813d d303 babd
000002b0: c366 d93d 76b2 5ebd 95a6 58bb eaf3 4f3d
000002c0: d0ab 0b3e 7a28 623e 7c8e 1d3e e145 13be
000002d0: 8dc6 a6bc 32f8 0dbd d3f9 47bd 43d2 723d
000002e0: dc8d ba3c 05f7 453c c1a6 7a3c 6510 993c
000002f0: a0e3 9a3d 7fbc 2d3e bb70 cf3e e913 e3be
00000300: 3186 e9be a956 99be c43a bfbf df73 0fbd
00000310: 46e3 a4bd 1252 143d 255f ab3d 4ca3 1f3e
00000320: c6a9 7e3d 4aef 23bb 4212 cc3c 2067 c03d
00000330: 5003 60bd 26c2 103e 834b 9a3d d823 953d
00000340: 7d21 1a3e cfe8 933d 1a7e 9e3d c556 9bbb
00000350: 26e3 ac3c 0419 053d 5a23 17be b2f7 673d
00000360: d547 863c 27cd 3fbd bfd1 933d 7e5e 283d
00000370: cf10 693b 1974 2b39 877b 393e f43e 86be
00000380: 03bb 69ba 81a1 1cbe 69b2 50bf 80f5 9abd
00000390: 67ff fcbd 73e5 eebb 47f6 463e 44de 4e3e
000003a0: aabe 03be 1ae5 ea3d 1b84 433e 883b ad3d
000003b0: 6d64 643e 7e42 54bd b8d9 bdbd b2c9 7bbd
000003c0: 0d73 9b3d 714d 9d3e 55c3 d9bd 44ec 4c3d
000003d0: d3f5 be3d 3f0d 00be c01d 283e c94a 45bd
000003e0: 361d d8bc 231d d3bd 8dde 55bd 02e2 0e3d
000003f0: 4e8a 033e 0caa dd3b 92c9 c4bd 9e97 9fbd
0.07200404 0.06784066 -0.17133896 -0.22066945 0.009778237 -0.0219643 -6.623573e-05 0.16758545
-0.082768574 -0.1076402 0.007455492 -0.044955727 -0.19259843 -0.18392186 -0.3008419 0.07756561
-0.2575563 0.28926185 0.056309786 0.09922643 0.006501716 -0.07177659 0.052174035 0.28370854
0.056496993 -0.005074148 0.20734277 -0.084369816 -0.34235796 -0.16982539 -0.2707098 0.10961096
-0.034107305 0.06420384 -0.13486591 -0.002441936 -0.029529197 0.12099334 0.12600599 0.0075148684
0.12935047 -0.10874851 0.071504146 -0.1802312 -0.22744697 -0.16988175 -0.5927837 0.0894723
-0.09142311 0.0061866734 0.05532724 0.17739694 -0.11298516 0.13706608 0.12074155 0.09945884
0.18309866 0.10389239 -0.2698413 -0.19305515 -0.1043254 0.09267509 -0.04898143 0.15316522
-0.019279366 -0.22916217 -0.56398475 -0.06918243 0.1515967 0.17567147 0.03995917 0.18953256
0.06868633 -0.006234855 -0.2160933 0.29057497 0.22708274 0.019304805 -0.035475094 -0.39811292
0.07558381 0.3310239 -0.00030369358 -0.35873228 -0.016631026 0.0047366284 -0.11486198 0.11907756
0.10369899 -0.4069389 0.24527305 0.23363553 0.13643545 -0.11541183 0.011028555 0.059900396
-0.04477346 -0.081478976 0.016765168 -0.18820846 0.27694446 0.14910515 -0.012017609 -0.18515255
-0.25816274 -0.024313146 -0.058069732 0.01971475 0.08145737 -0.02750076 -0.018213863 -0.05420821
-0.23044614 0.3254033 -0.20850779 -1.0197563 -0.22624168 -0.1368492 0.06350088 0.1438859
-0.5155679 0.12213767 -0.042974137 -0.29031324 -0.30926764 -0.22721025 -0.3051334 -0.04636962
0.11288724 -0.4505669 -0.50087774 -0.17156257 -0.08869217 0.037723143 0.16436285 0.019547006
-0.038871333 -0.03990022 0.0381853 0.10989006 -0.18924563 0.17001252 0.09158785 -0.045252703
-0.2805663 -0.09732085 0.10455427 -0.015300069 -0.049493287 -0.11100559 -0.17537442 -0.21013376
-0.21873978 0.15423232 0.2766499 -0.32956198 -0.01573314 -0.29952145 -0.025051108 -0.0012731327
-0.0777452 -0.088219464 -0.119350396 -0.1765881 0.043181323 0.039972253 -0.049408995 0.17557536
-0.09820014 0.041270025 0.06302573 -0.09082761 0.10615303 -0.054369412 -0.0033058275 0.050769724
0.1363976 0.22085753 0.15386385 -0.14382125 -0.020358348 -0.034660526 -0.048822235 0.059282552
0.022772722 0.01208282 0.015298546 0.018684575 0.07562947 0.16966437 0.40515694 -0.44351128
-0.45610192 -0.2994893 -1.4939809 -0.035022613 -0.080511615 0.03621108 0.08367757 0.15589637
0.062173627 -0.0025014454 0.02491105 0.093946695 -0.05469066 0.14136562 0.07533934 0.07282227
0.15051837 0.07222139 0.07738896 -0.0047405683 0.021104407 0.03249456 -0.1475958 0.056632705
0.016391674 -0.046826508 0.0721774 0.04110574 0.0035562997 0.0001635108 0.18113528 -0.26219904
-0.00089161115 -0.15295984 -0.8152223 -0.07566357 -0.12353402 -0.007290536 0.19429885 0.20201975
-0.12865701 0.11469479 0.19093363 0.0845862 0.22303934 -0.051821224 -0.09270042 -0.06147165
0.075903036 0.30723146 -0.1063296 0.050030008 0.09324231 -0.12505053 0.16417599 -0.048167024
-0.026381116 -0.10308292 -0.052214194 0.034883507 0.12845728 0.006764656 -0.09608759 -0.077925906

fc1.bias f4 [64]
00000000: 7a84 c53d 84ab 0ebd 1d5b fdbd 554b c3bd
00000010: 4fa3 113e 29e0 fb3c 1ca4 8bbd 3e8f 633c
00000020: df9c c63d e658 7dbe 12d9 053e 08af 3a3e
00000030: 64c4 c83d cf4c c13c aed1 02be 67d2 27be
00000040: 1b66 273d 0f8b 4b3b 6056 c63c 0caf 0abe
00000050: 3bed 7fbd 25d2 c53d 67ec 8fbd 7125 28bd
00000060: 9829 47be 469e 6a3e 44ea 9fbd 49c7 2dbe
00000070: 4088 bf3d 80a1 193e e604 ddbd 39d8 88bd
00000080: e12b 0f3e e07e 763d 401e afbd d022 a73c
00000090: 0fbb 7fbd cd8c 293d 1ff3 a23c aebf 2abe
000000a0: 705f 28be 0436 85bd 25d5 9ebd bc15 773e
000000b0: 9e9c 893b 40f0 15be 710b 42bc 5046 24be
000000c0: 55f4 fdbd 0278 d03c 6cd7 38be beeb 913d
000000d0: 6ea9 4abd a741 f1bd 8dc8 9ebd 24c3 0bbc
000000e0: 503c 263e ec0f bebd f427 0bbe a04d c3bd
000000f0: e479 073c 08e3 ff3b 4206 76bc d39e 7fbd
0.096444085 -0.03483154 -0.12370894 -0.09535853 0.14222454 0.030746536 -0.06818411 0.013889132
0.096978895 -0.24740943 0.13071087 0.18230832 0.098030835 0.023596196 -0.12775299 -0.16388856
0.04086886 0.0031058227 0.024211109 -0.13543338 -0.0624821 0.096592225 -0.07027512 -0.041051332
-0.1944946 0.22911939 -0.078083545 -0.16970553 0.093521595 0.15003014 -0.1079195 -0.06681866
0.13981582 0.06017959 -0.085506916 0.020402342 -0.062434252 0.041394044 0.01989132 -0.16674682
-0.16442657 -0.06504443 -0.07755498 0.24129385 0.0041995784 -0.1464243 -0.011843548 -0.16042447
-0.12400118 0.02544785 -0.18050927 0.071250424 -0.049477987 -0.117801 -0.07753096 -0.008530412
0.16233945 -0.092803806 -0.1358946 -0.0953629 0.008268807 0.0078090467 -0.01501614 -0.062407326

fc2.weight f4 [64, 64]
00000000: 70d0 63bc face e3bd cc8c e83d 8bd2 113e
00000010: ba45 4f3d 4435 05be 1add 2fbe e9b0 f3bd
00000020: f048 8cbe 15c9 63bd 15fa 6d3e 68a0 acbe
00000030: 1a68 e8bd 56f3 383d e135 86bd 600d c6bd
00000040: 0d57 13be f6f3 80bd 8675 993d 274c 6e3e
00000050: cb26 51bc 6cf9 d3bd 3ee0 8ebe fee4 6abd
00000060: 50a3 863c 5181 923d b079 97bd d744 4abe
00000070: 0fbe 1f3d 65dc d93d b147 7d3d 6ff2 b1bd
00000080: ea20 4f3d a605 0cbe c6eb ca3d e1b4 533d
00000090: 86fb 70be 498f 01be d341 223e 6642 e83c
000000a0: d7d1 3bbd d3b4 d9bd c588 493e 4567 dabd
000000b0: 8927 183f c1df 3abd 2f1a 49bd b5c6 b2bc
000000c0: 413c aabd baba 0abe 5888 85bc 497c 66be
000000d0: 11b3 76bd 902d cabe 85bd 0ebd 8c9d 4e3d
000000e0: 5089 56be 1581 bcbd 61dd 01be 930d 14bd
000000f0: df12 b13d 5929 853d 7f2d c33d 5dcc bb39
00000100: 2403 5f3d c0ba 083e b522 a5bd ae8a e9bb
00000110: 667c 263d 9b76 6f3e 35c4 43be 37b6 993d
00000120: e179 863d 720b 143d df29 823e d231 bd3e
00000130: c010 11be 5523 de3d c290 65bc 0df1 9f3d
00000140: f129 e23d 2893 b43d 778f 20be bf89 ad3d
00000150: 91b6 083c 4048 2b3d 6324 a1be a03c afbd
00000160: 00ce 813c a999 b93d a184 ad3c 683a 573e
00000170: 271f ec3d 648f c83b 2387 b7bd 47bf c63c
00000180: 5cc9 4ebc fa71 a6bd fe13 0c3e 947e eb3d
00000190: 9af3 d6be f02a 163e 02b9 0e3e 51db 44bd
000001a0: 7bf6 cd3d 6abc 9ebe 51bf 66be 9ba2 bdba
000001b0: 2c2f 923e bbfc 47be 938f 78bd 2a51 133d
000001c0: c196 d7bd 1a3c 37be c43a 023d 711b 1b3e
000001d0: 3ddb 71bd 5da8 b43d d135 57bd 4d91 243d
000001e0: a801 c73d abb6 c73c b31c 003e 886c 903d
000001f0: ff7f 81bd 2ecd 133e dc87 c5bd 43c0 68bc
00000200: 59e1 a93c a4e1 51bd 4e7c 623d 426e 873e
00000210: ffcc 60be a92e fdbd 24aa 48be 411c 98bd
00000220: fb15 773b 54fb 83be cc00 8d3e e6fc 7cbd
00000230: fd5a c9bd c1d4 263e 3e41 61bd c7f3 5c3d
00000240: 8f5e a4be 0ea1 153c 5976 82bc f24f 37be
00000250: f507 4abe b1ba fa3c 6b2c 59be 6f0a 4ebc
00000260: 6088 51be 3495 c53d 4ef6 eb3d 407c a83c
00000270: 0aed 46be 17eb 043d 44b0 19be 7ca6 fbbc
00000280: fce3 d8bc bc67 1bbe 9bc3 063d c419 03bd
00000290: 5d1e 0f3e 6146 bdbd 69ae 36be 337e 87bd
000002a0: bde3 f43c 3be3 e0bd a514 8bbe f1a2 56be
000002b0: c723 37be 0b82 9cbd da4a 55bd 9ff0 153c
000002c0: aafd c93d 5cbb 2fbe b254 77be ad21 4e3c
000002d0: b499 13be e607 a9be dadf aebe f23b 44bd
000002e0: b9b0 b6bc 952b ddbe 36d4 053c 5fa3 e3bd
000002f0: 600d 1abe ae19 c3bd 864e 1cbd 8ea4 a7bb
00000300: 264b 903d f7a2 84be 57a6 12be 6f4f 843e
00000310: de6a 3c3e 5ba6 c13d fc7d 5cbc 032d 9dbc
00000320: 633a a3be 0d88 553d f06a 5dbe 93e9 cb3d
00000330: 151d 143d 08c2 71bd 3fc0 09be c67b 88bd
00000340: 5744 1fbe 2715 dfbd 2e0b 3cbd 3fc5 04be
00000350: 988f 29be e992 2bbd 6bde aebd abc0 0abd
00000360: 6142 02be f3d4 813d 5d45 8c3d c626 e33d
00000370: e6a5 703e bf5c 00bf fe3d ff3d 7340 0f3e
00000380: e1e8 cdbc 1926 913d ed94 b63e 2339 a53d
00000390: d9c0 f9b9 013d 843d 3e29 2c3e 143c f23d
000003a0: 9ee7 123e 8a39 0c3e 7c87 183e d086 0ebe
000003b0: 9999 c9bd cf15 443d e693 73be 440c 6cbe
000003c0: 8f61 993e 895e 513e 05d7 88be 67b8 46be
000003d0: 5495 b63c f7ca 8fbe 04af 643e d363 eb3d
000003e0: 2f2d 7cbe 1d8a 83bd 2283 29bc 6667 d43d
000003f0: 2b6b ddbe efc7 7fbd 6674 1fbe f7df b5bc
-0.013904676 -0.11123462 0.1135498 0.14240472 0.050603606 -0.130086 -0.17174187 -0.11898977
-0.27399397 -0.05561169 0.2323993 -0.3371613 -0.11347981 0.04515394 -0.06553245 -0.0967052
-0.14388676 -0.06296532 0.07493119 0.23271237 -0.012765597 -0.10350308 -0.27905458 -0.05734729
0.016435295 0.071535714 -0.07396257 -0.19752823 0.038999613 0.1063774 0.06183595 -0.08688819
0.0505685 -0.1367403 0.099082515 0.05168617 -0.23533449 -0.12652315 0.15845422 0.028351974
-0.045854416 -0.106301926 0.1968108 -0.10664228 0.59435326 -0.045623545 -0.049097236 -0.021823267
-0.08312274 -0.13547793 -0.016300365 -0.22508349 -0.060229365 -0.39487886 -0.03484871 0.050443217
-0.20950818 -0.09204308 -0.12682106 -0.036145758 0.086461775 0.06502027 0.09530162 0.00035819682
0.054446355 0.1335249 -0.080632605 -0.0071271276 0.04064598 0.23385088 -0.19117816 0.07505458
0.06566215 0.036143728 0.2542257 0.36952072 -0.14166546 0.10846583 -0.014011564 0.07809649
0.11043156 0.0881713 -0.15679727 0.084735386 0.0083443085 0.04181695 -0.31473073 -0.08556485
0.015845299 0.090625115 0.021181406 0.21018374 0.11529379 0.006120609 -0.08961322 0.02426113
-0.01262125 -0.08127208 0.13679501 0.11498752 -0.41982728 0.14664817 0.13937762 -0.04806072
0.10056778 -0.31003124 -0.22533919 -0.0014468016 0.28551614 -0.19530003 -0.060683798 0.035966076
-0.10526801 -0.1789402 0.031794325 0.15147187 -0.059046973 0.08821175 -0.052541558 0.040177632
0.09717113 0.024379095 0.12510948 0.07051951 -0.063232414 0.14433739 -0.09645054 -0.014205995
0.020737337 -0.05124058 0.055294327 0.26451308 -0.219532 -0.12362415 -0.19596153 -0.07427264
0.003770231 -0.25777686 0.2753967 -0.06176462 -0.09831808 0.16292097 -0.05499386 0.05394342
-0.32103392 0.009132637 -0.015925573 -0.1790159 -0.19729598 0.0306066 -0.2120835 -0.01257573
-0.20462179 0.09647599 0.11521588 0.02056706 -0.1942636 0.03245076 -0.15008646 -0.030719034
-0.026475899 -0.1517629 0.032901388 -0.032006994 0.13976426 -0.09241939 -0.1783997 -0.066158675
0.02989375 -0.10980841 -0.27164188 -0.20960595 -0.17884742 -0.07641991 -0.052073337 0.009151607
0.09862836 -0.17161316 -0.24153402 0.012581271 -0.14414102 -0.3301384 -0.3415516 -0.04790873
-0.022301065 -0.43197313 0.008168271 -0.11115145 -0.15044165 -0.095263824 -0.038160823 -0.005116052
0.070455834 -0.25905582 -0.14321266 0.25841853 0.18400142 0.09455558 -0.013457771 -0.019186502
-0.31880483 0.0521317 -0.21622825 0.0995666 0.036160547 -0.059022933 -0.13452242 -0.06664233
-0.15553413 -0.10892706 -0.0459091 -0.12965868 -0.16558683 -0.04188815 -0.085385166 -0.03387515
-0.12720634 0.06339445 0.068491675 0.1109138 0.23500785 -0.5014152 0.12462996 0.13989429
-0.02513546 0.07087345 0.35660496 0.080675386 -0.00047636664 0.06456948 0.16812608 0.11827865
0.14346167 0.13693824 0.14895433 -0.13918614 -0.098437496 0.04787236 -0.23786888 -0.23051554
0.29957244 0.20446219 -0.26726547 -0.19406281 0.022288002 -0.28084537 0.22332388 0.11493649
-0.24626611 -0.064228274 -0.010346206 0.10371284 -0.43245825 -0.06244653 -0.15571746 -0.022201521

fc2.bias f4 [64]
00000000: 3a61 f7bc 67bc a63d 10b6 7abc 6405 d23c
00000010: d9cf 163e 4af2 86bd 7959 1fbd fc8d a43a
00000020: 59cc 0fbc 3b88 cf3e db7b 0dbd fa0e 353e
00000030: c74f 303e de2b 4f3d de08 82bc 47b2 193d
00000040: ad34 113d f95d 813d e5d2 55bd 250c 833e
00000050: 26fb ca3d d115 f43e bcfe 10be 9207 34be
00000060: 04a1 e9bd 358b 2dbd 7823 a13d 6525 bfbc
00000070: adcb c8bd 7017 853c 473a 9c3d fd97 7abd
00000080: e292 a6bd f380 1a3d 6769 d6bc b976 02bd
00000090: d397 afbd 55b9 d4bd 6646 4d3d ea6a a83c
000000a0: 1a08 8cbd ae81 ee3e 019d 9d3e 060a 06be
000000b0: 1c83 a53b 501e afbd 4fbd 6fbd 4314 e8bd
000000c0: 3e4e 50bd fd02 0fbe 6551 dabd b2b9 213d
000000d0: a3d1 41be 8634 f4bb 837f d03d 0071 2cbd
000000e0: 04b6 5ebe 65cb 3cbe d15b 8ebd 833a 9fbd
000000f0: d609 9fbd 9467 543e abaa a73d c2f3 77bd
-0.030197728 0.08141404 -0.015302196 0.025637336 0.14727725 -0.06589182 -0.038903687 0.0012554522
-0.008776748 0.40533623 -0.034541946 0.17681494 0.17217933 0.050578944 -0.015873369 0.037523534
0.035450626 0.06316752 -0.052203078 0.25595203 0.09911184 0.47672895 -0.14159673 -0.17581013
-0.114076644 -0.042369086 0.07868093 -0.02333326 -0.09804473 0.016246527 0.07628303 -0.061180104
-0.081334844 0.03772063 -0.026173307 -0.031851504 -0.0857388 -0.10386912 0.050115965 0.020558793
-0.06837483 0.46583313 0.30783847 -0.13089761 0.00505103 -0.085507035 -0.058530148 -0.113319896
-0.050855868 -0.13965984 -0.10660056 0.039483733 -0.18927626 -0.0074525503 0.10180571 -0.042099953
-0.21749121 -0.18436964 -0.06951106 -0.07774832 -0.07765548 0.20742637 0.08186849 -0.0605352

fc3.weight f4 [4, 64]
00000000: 88fd 723e e724 483e 7b84 883d 1671 0a3e
00000010: f9de bf3d 6b3e b23d 52ee b63e ad3b e1be
00000020: 4fc2 023f af54 043e c035 2fbe 9518 713e
00000030: 3a61 8a3e a9c9 e83d 68d6 b23e 138b 1dbe
00000040: 007d 603c 5e88 873e 0cc0 86bb 1ed9 673e
00000050: 747c bb3d 607c 283e 7a08 bc3d d827 94be
00000060: 9331 0abf b62c 683c a1dd bfbe 5567 f8be
00000070: 88c8 12be 97af 773b ac76 d6bc 057a b83d
00000080: 8a0e 2a3a 61e9 853e 9fcc bc3d f775 223e
00000090: 8872 563e ae28 143d f91e 2c3d 6a31 343d
000000a0: a219 4e3e 8a6a 183e 55c2 6f3d 07a5 f9bd
000000b0: 212f 4dbc 0a8e 3dbd 5165 9c3e 6813 103e
000000c0: dfe4 8fbe 9ad0 1a3e 3e0b 6e3c f822 22bc
000000d0: 1579 37bd 5c0d 3a3e 742c 0b3e 69f8 0a3e
000000e0: 57e2 2fbe b2e2 47be 7229 80be b3eb 913d
000000f0: cf2f 52be 1c27 123e dfcd 253e e152 eb3d
00000100: 7465 803e 4981 183e 4ed8 d73e 6686 5b3e
00000110: 5a93 e83d fc88 163e 1c3e 913e d0d5 1ebe
00000120: 674d 8f3e 3b20 f03d d37e 0fba 1ef8 b43d
00000130: 2d28 123e b62a 853e d0a2 883e d20c 9fbd
00000140: 426c b0bd 030f 4d3e d051 21be 3c65 d43d
00000150: 9268 893e 6c19 373e 3cc0 0b3d 3bff 9dbd
00000160: 75bc c2ba 3908 babd 201e 7f3c 364e 0cbe
00000170: 5330 0bbe a703 613e 17a7 f53e e578 323e
00000180: ff76 fbbd 445b 013e be87 cc3e 02ec 953d
00000190: 891b 543e b5bd d3bd c4c4 243e 67dd de3c
000001a0: 6814 c53e 8444 3e3e 264d ce3d f81e 0fbe
000001b0: 4e18 bb3d 20e1 23bd 0f75 8e3e a5d3 aa3c
000001c0: cf5d d3bd eea0 49bd 1ede e23d 955d 1bbe
000001d0: 353f eebc 8b7f 813e 28c3 323e e380 ec3e
000001e0: 31d1 30be 134d 78be 1dcc 183e f4e5 cabe
000001f0: 1253 3fbe 5067 8f3c 3cad 3a3e abf1 25be
00000200: 8de2 2a3e 3667 fa3d 9afa 8abe 5309 033f
00000210: 918f 063e c6b7 7d3d 7a3e 143e 71d4 34be
00000220: c356 e53e 9bc2 1f3e f664 51be b48c 5a3e
00000230: 40be 8c3e d092 3bbe 0004 c43e 7289 12be
00000240: e19e 703d 1175 9b3d 0d35 31be 6038 b63d
00000250: 8ba7 4e3e 25e9 653e 893a 2abe a572 253d
00000260: 67f2 09be 1530 0dbe 5c03 6cbe 02de e8bc
00000270: b0dc e83d e638 223e 4b18 84bd 18af 5e3d
00000280: 0d78 0d3c 087e 053e d0e7 8f3e 7049 953e
00000290: 4b89 093e 0bba 143e f094 973e c8e2 273e
000002a0: acb9 d13e 0a5d 313e 5f1c d63d 8173 a8bd
000002b0: 5c6b a43d c1a3 23be 81f6 1e3e 7d96 823e
000002c0: 23ae 1abe d95d 7dbe d80b 953e cb1b 193e
000002d0: fb40 aabe ad7a 25bd 921c 453e 3ead 4ebc
000002e0: 1067 e1bd 1eb8 27be 3b63 63be d6e2 83be
000002f0: 7eca 83be 733d de3d 4c9a 7f3d c23d 8f3d
00000300: 350d 223e 5c42 203e 02e1 91bd 897b 9abd
00000310: 5495 c4bd b3d4 ca3d 8f48 5c3e 7558 c5bd
00000320: 82ce b63d 0763 2c3e 1441 443e 8e69 4a3d
00000330: 3861 5a3e eacc 193d 5dde 473e 1e76 29be
00000340: 12a1 e43e e24e 133e b9f0 1b3e 2a14 aa3d
00000350: fb69 05be 768b 323e e68f 953c 7722 9b3c
00000360: 6512 97be 4954 af3e d07d a5be 22e6 103e
00000370: 4d62 953e 5606 fcbc 0412 87bd 3aed 193e
00000380: 70bb 8bbe 2637 4c3e 4ead 7fbe b8fc 8e3e
00000390: ee64 02bd ea1b cd3d 3cde dc3d 306c ca3e
000003a0: f26f 843d ed68 543e 5560 3d3e 9476 c3be
000003b0: 1cc4 7e3e 515d e4bd b866 ce3e 18e0 cd3e
000003c0: bb44 83bc 4dff 2f3e abc1 993e 3753 76be
000003d0: f424 25be e0e9 ae3e fc55 c43d 20b6 013f
000003e0: deb4 97be d1b3 37be 2a3d d4be 9c25 0fbf
000003f0: 92be 4cbe d9a4 d33c 4b64 46be 1039 d63d
0.23729527 0.19545327 0.06665894 0.13519701 0.093687005 0.087033115 0.357287 -0.43990842
0.5107774 0.12922929 -0.17110348 0.23544534 0.27027303 0.113665886 0.34929204 -0.15385084
0.013701677 0.26471227 -0.0041122492 0.22641417 0.09154597 0.16453695 0.09181304 -0.28936648
-0.53981894 0.014170816 -0.37473777 -0.48516336 -0.14334309 0.0037793869 -0.026179634 0.090076484
0.0006487152 0.26154616 0.09218716 0.15865313 0.20942128 0.036171608 0.042021725 0.043992437
0.20126966 0.14884391 0.05853494 -0.121896796 -0.012523443 -0.046278037 0.30546048 0.14069903
-0.28104302 0.15118638 0.0145290475 -0.0098960325 -0.044793207 0.18169159 0.13591176 0.13571323
-0.17176186 -0.19520071 -0.2503162 0.07125034 -0.2052605 0.14272732 0.16191815 0.11490417
0.25077403 0.14893068 0.42157215 0.21437988 0.1135623 0.14700693 0.28367698 -0.1551125
0.2798874 0.117248975 -0.00054739154 0.08836387 0.14273138 0.26009148 0.26686716 -0.07766117
-0.086143985 0.20025258 -0.15753865 0.103708714 0.26837593 0.17880791 0.034118876 -0.07714697
-0.001485719 -0.090835996 0.015571147 -0.1370171 -0.13592653 0.2197405 0.47979042 0.1742893
-0.12278556 0.12632471 0.39947313 0.073204055 0.20713629 -0.10338918 0.16090685 0.027205182
0.3849213 0.18580824 0.10073309 -0.13976657 0.09135495 -0.040009618 0.27823684 0.020852873
-0.10320627 -0.04922574 0.11077522 -0.15172417 -0.029082874 0.2529262 0.17457259 0.46192083
-0.172673 -0.24248151 0.14921613 -0.39628565 -0.18684033 0.017505318 0.18230146 -0.1620547
0.16687985 0.12226717 -0.2714432 0.511861 0.13140704 0.061942838 0.14476958 -0.17659165
0.44792756 0.1560158 -0.2044867 0.21342736 0.274889 -0.18317723 0.38284302 -0.14310244
0.05874527 0.07590688 -0.17305394 0.088974714 0.201811 0.22452219 -0.16623892 0.040392537
-0.13471375 -0.13787873 -0.23048156 -0.028426174 0.11370218 0.15842018 -0.06449946 0.0543662
0.008634579 0.13036358 0.28106546 0.2915759 0.1343128 0.14524095 0.29605818 0.16395104
0.4096197 0.17320648 0.1045463 -0.082251556 0.0802829 -0.15980436 0.15523721 0.25505438
-0.1510549 -0.24742831 0.291106 0.14952008 -0.332527 -0.040400196 0.1924918 -0.012614546
-0.11005986 -0.16378829 -0.22205822 -0.25759 -0.25740427 0.10851564 0.06240301 0.06994201
0.1582535 0.15650314 -0.07122995 -0.07543094 -0.095987946 0.099038504 0.21512054 -0.096360125
0.08926107 0.16834651 0.1916545 0.04941707 0.21326149 0.037548937 0.19518419 -0.16548964
0.44654137 0.1438556 0.15228547 0.08304627 -0.1302871 0.17436013 0.018257093 0.018937333
-0.2950622 0.34243992 -0.3232255 0.14150289 0.2917656 -0.03076474 -0.06595233 0.15031901
-0.2729144 0.19942912 -0.24968454 0.27927184 -0.031834535 0.1001509 0.10784575 0.39535666
0.064666644 0.20743151 0.18493779 -0.38176405 0.24879497 -0.11150611 0.40312743 0.40210032
-0.016023984 0.17187233 0.3003057 -0.24055181 -0.16127378 0.34162807 0.09586713 0.50668526
-0.29630178 -0.17939688 -0.41452914 -0.5591676 -0.19994572 0.025835441 -0.19374196 0.104601026

fc3.bias f4 [4]
00000000: 8937 863e e18f 793e 04ed 293e 9f89 413e
0.26214245 0.24371292 0.1659432 0.18900155
